decoder/decoder_100_obj.pt (torch, 155506 bytes, 10 tensors)

lin0.bias f4 [128]
00000000: ec53 d0be fc3a 0a3f cc8e fabe 12d5 30bf
00000010: 719b fbbe 2a03 093f 68b7 c73d c045 96bc
00000020: 2a20 fcbd c68e be3c b797 40bf affe c73e
00000030: 17ac fe3d d793 7bbe 2b0f bc3d 134b 2ebe
00000040: 4564 723f 02ec 77be 6b38 053e f883 b4bb
00000050: 73af db3e a2c8 023e 39d8 78be b0ab 13bf
00000060: e0e1 643c 4b6f a5be 0933 0dbf 2222 923e
00000070: 1ba3 1b3e e974 abbe cde9 afbd 2df5 edbe
00000080: 9fa8 423e ea6a 05bf 3a47 78be 28c5 98be
00000090: 706a 29bf 2049 2fbe cb1f b53e 225c 833e
000000a0: 4be4 2bbf 069e 80be c561 6cbd 088c 553e
000000b0: 4ff9 803e 10cc ee3d d753 4fbe 5cbb 5abe
000000c0: f12c 5a3f ce73 f2be 3dc7 9cbe 9f2b 50be
000000d0: 7d36 0a3f e084 10bf 61b2 2bbd 2d21 05bf
000000e0: 29d4 29be 40a2 fe3c e576 603d b91e f0be
000000f0: d286 d13e ccf0 e3be 2ba6 c2bd 474a a43e
00000100: 6ed1 82be 6698 41bf ad92 1e3f 304a 133e
00000110: ad3c 86be d449 663e 6648 9dbe a282 2abf
00000120: a148 713f 82fe 4ebf d68b d4be 03c7 4ebe
00000130: 8f99 12bf 7b78 37bf 5f18 82be 8a28 9a3e
00000140: c6aa 76be cc6d 173e affc dd3d b936 85be
00000150: 13e0 b1be b804 22bf 6cfe 163f 3b82 84be
00000160: 0c44 87bd f4fe 92bc 0d74 4a3f 88bd 823d
00000170: 7cd4 313f e71a 77be f693 0f3f f640 6c3e
00000180: 5271 90be 602f debe a281 d23e 0533 0dbf
00000190: ac04 1a3f 5825 b0be 43b0 ba3e 555d 2d3f
000001a0: 3764 4bbe c387 b83e 9e3e e2be 5b7f 1dbf
000001b0: 85f7 45be de6a 143f 3b38 083f ca63 fe3e
000001c0: 141e 28bf cdc6 1cbf 5724 0cbe ffe6 843c
000001d0: 7198 ddbe 8398 35be 8cb9 2ebe d845 9f3e
000001e0: 4084 48be 9fcb e43e 5e5b 143f 49f9 79be
000001f0: 1b4d b3be 4fb1 a83e 5b5c 8b3e 5169 a3be
-0.40689027 0.53996253 -0.4893707 -0.6907512 -0.4914203 0.5352045 0.09751779 -0.018343806
-0.12310822 0.023261439 -0.752315 0.39061496 0.12435167 -0.24568115 0.091825806 -0.17020826
0.9468425 -0.24211124 0.13009803 -0.005508896 0.42907295 0.12771848 -0.24301232 -0.5768385
0.013969868 -0.32311472 -0.55156 0.28541666 0.15198939 -0.33487633 -0.08589516 -0.46476117
0.19009636 -0.5211626 -0.24245921 -0.29837918 -0.66178036 -0.17117739 0.3537582 0.2565623
-0.6714522 -0.25120562 -0.057710428 0.20854199 0.25190207 0.116600156 -0.20246826 -0.21360534
0.85224825 -0.47353977 -0.30620757 -0.2032914 0.5398939 -0.5645275 -0.041918162 -0.5200375
-0.16584839 0.031083226 0.054800887 -0.4689844 0.40923172 -0.4451965 -0.0950435 0.3208792
-0.25550407 -0.75623167 0.6194256 0.14383769 -0.26218167 0.224891 -0.30719298 -0.6660558
0.9425145 -0.808571 -0.41512936 -0.20193104 -0.5726556 -0.71668214 -0.2540922 0.30109054
-0.24088582 0.14787978 0.10839211 -0.26018313 -0.34741268 -0.6328845 0.58981967 -0.25880608
-0.06604776 -0.017943837 0.7908333 0.063838065 0.6946485 -0.24131356 0.56085145 0.23071656
-0.28211457 -0.4339552 0.41114527 -0.55155975 0.6016338 -0.3440349 0.36462602 0.6772054
-0.19862448 0.36041078 -0.44188398 -0.61522454 -0.19332702 0.57975566 0.532108 0.49685508
-0.65670896 -0.61240846 -0.13685738 0.016223429 -0.43280366 -0.1773396 -0.17062968 0.31107974
-0.195817 0.446866 0.57951915 -0.24411501 -0.35019764 0.32947776 0.272189 -0.31916288

lin0.weight_g f4 [128, 1]
00000000: c9a8 cb3e cd59 243f 2072 ea3e f409 893e
00000010: 3ee1 be3e 221a ac3e 8655 c23e bfef 873e
00000020: 420d 4a3e 6892 fe3e b586 963e 0fa9 e43e
00000030: 8074 f83e 05ec 7f3e 8bee 853e f1d9 983e
00000040: 4748 ac3e 9f6a 223f 64bc be3e 8f48 ef3e
00000050: 0909 a73e f1d9 b83e 1406 0c3f 5c93 053f
00000060: 03a6 043f ec4b 013f 4fe7 da3e db5f cb3e
00000070: f1b9 523e f7e4 223f cab9 183f cfb6 e03e
00000080: c22d ad3e 54c1 983e aa83 203f 7291 9d3e
00000090: e76c 5d3e fb7d 9c3e 7c62 a0b8 fb6b 693d
000000a0: 11f2 f73e f083 0c3f 29fe 913e 1d77 fa3e
000000b0: a26a 0b3f 6819 8c3e 880f de3e cce0 b53e
000000c0: 0320 453e 99a7 983e 3555 0d3f 332c d33e
000000d0: 6b4a 103f 0ca6 0d3f c0d1 a43d 6248 513e
000000e0: d6e9 d13d cec3 0a3f 8b1d 8d3e 2812 a03e
000000f0: a159 be3e 9d55 b13d 9f69 053f cdf5 ec3e
00000100: 831f 7e3e fd65 ef3e 8419 e43e dbe4 e53e
00000110: b19c 9a3e 025a 153f a1c1 3e3e a00f c53e
00000120: 80ff 1b3c 9f95 da3e c82d 6c3e 35da e33e
00000130: d0fe f13e 1dc9 043e ffb3 e93e e33a fb3e
00000140: a06d 193f de80 ff3e d378 da3e eb75 da3e
00000150: d311 ee3e b1fa 193f 7a11 ea3d 1043 a13e
00000160: 9c74 c43e 4319 5a3e 908c 593e 20a2 e93d
00000170: fc3a c33e 05a5 e33e b021 e23e a759 173f
00000180: 0e4a f43e 3d52 f63e f4fe 633e 88dd 903e
00000190: ac9b bf3e 2471 2a3d fee3 953e d952 613e
000001a0: 18a6 673e de42 473e 4d7e 343d f157 d23e
000001b0: 3987 043f 2955 623e 8485 de3d d135 ba3d
000001c0: 8daa 043f d6be ef3e 0aac b33d 17ab c63c
000001d0: 6e01 b83e 3352 b03e 5994 4b3e 2d8d 033f
000001e0: 0bf5 e13e e856 f43e 01cb 9b3e 0603 e23e
000001f0: 91a0 0d3e e952 05bb 8b5a e43e c870 0e3e
0.3977721 0.64199525 0.45790195 0.26765406 0.3728122 0.33613688 0.37955874 0.265501
0.1973162 0.49721074 0.29399648 0.4466023 0.48526382 0.24992378 0.26158556 0.29853776
0.33648893 0.6344394 0.37253106 0.46735045 0.3262408 0.36103776 0.54696774 0.5217798
0.51815814 0.5050647 0.427546 0.3972157 0.20578744 0.6363062 0.5965849 0.43889472
0.33823973 0.29834998 0.62700903 0.30775028 0.21623574 0.30564865 -7.647739e-05 0.056987744
0.4842687 0.5488882 0.2851422 0.48919 0.54459584 0.27363133 0.43371224 0.3552307
0.19250493 0.29815367 0.5520814 0.4124466 0.5636355 0.5533149 0.08047819 0.20437768
0.10249679 0.54205024 0.27561602 0.31263852 0.37177756 0.086589076 0.5211429 0.4628128
0.24816708 0.46757498 0.44550717 0.44901165 0.3019767 0.58340466 0.18628551 0.38488483
0.009521365 0.42692277 0.23064339 0.44502416 0.4726472 0.12967344 0.4564514 0.49068365
0.599329 0.49903005 0.42670307 0.4266809 0.46497974 0.6014815 0.11429115 0.31496477
0.38370216 0.21298699 0.21245027 0.11407876 0.3813094 0.44461837 0.44166327 0.59121174
0.4771275 0.48109618 0.22265226 0.28294015 0.37423456 0.041611806 0.29275507 0.2200426
0.22621953 0.19459102 0.044065762 0.4108272 0.51768833 0.22102799 0.1086531 0.09092296
0.5182274 0.46825284 0.08773048 0.024251504 0.3593859 0.34437713 0.19880809 0.5138729
0.44132265 0.47722554 0.30428317 0.44142932 0.13830782 -0.0020343608 0.4460033 0.1391021

lin0.weight_v f4 [128, 32]
00000000: 4350 243e 64d9 193f 4d0b 3ebd 6eca 8c3e
00000010: dccb ea3c 3fd5 743d 8787 7ebe 9826 2d3e
00000020: 3204 3ebe 2ad7 3dbe f611 cd3e caca 883e
00000030: 4123 ecbd 61dc c2bd 706a 2b3d e169 fd3e
00000040: 403c a13d 238b b63e f6d4 0d3d 45c1 9abe
00000050: baed ebbd 8056 b13d 32a3 b83d cb0d e33e
00000060: 172a 59bd 8631 c13d 0025 70be fbc3 12bf
00000070: f9e4 c63d 9522 c1be 8b30 b63e d669 3c3e
00000080: 52d1 65bd ffd0 bbbd e7ff 0cbf 28e8 1e3e
00000090: ef4e 17be a6a4 153d 8c8c e7bd 1cbd 9f3e
000000a0: a8e8 7d3e a344 283d e667 cf3e 1240 a33d
000000b0: 0a5c 063f 41ce 4dbe afa8 25bf 137a 523e
000000c0: 2947 8ebe 51f1 eebe 587c dfbd a66a 933c
000000d0: d3c2 873e b44f 143e 5a3d e33c ba9d a1be
000000e0: 9fb1 3abf aa48 983d e4ee 663d 0831 72bd
000000f0: e93e cebb 82c5 433e e17d 5d3d 695a 3f3d
00000100: 5085 823e b65b d63d 63c0 0f3d 0268 4ebe
00000110: d3a4 3dbe 7ce9 1cbc 86c1 e23e a6a4 ae3e
00000120: 645e 593d b7bc 0dbf 2d94 323f 4335 3d3e
00000130: e544 ae3e 1a73 0ebc d706 903e e431 b1bc
00000140: f1e3 633c 418a dc3e ce2b 343e 1b54 8abe
00000150: 3501 6d3c b261 0abd 841a ba3e 5fd0 73be
00000160: e69b 4e3d e795 41be daaf fcbe 38f5 98bd
00000170: 4c5c 803e 869d 34be 1d60 7b3e 085c 8dbe
00000180: 3b54 83bd da7d 94be 05e1 8e3c 366e 533d
00000190: 5f7c 6d3e 9ddd cfbe e83d a63e 090b 7b3e
000001a0: ec26 c4bd 5f91 51bf e9f7 26bb 773f 803c
000001b0: fe1c 333f ed0b 26be 846d 93be a2fb c3be
000001c0: 986a 5e3e a57f 7ebe 1f8c a23c 9f25 adbe
000001d0: 2102 57bd ea9b 03be 9eb7 4dbe f2ae 46bd
000001e0: c30c fd3d 82a6 e3bc 6c3c e1bb 7a65 19be
000001f0: d49a 8d3d 57e0 163e f42a 39bc 278d 48bd
00000200: 798c 07bd 5c80 d5be 2e15 e43e 73a5 883e
00000210: f792 9d3e 160b 1e3f 8b6f 15bb 00d0 ecbe
00000220: f2fc 1a3e 23e9 e0be 4eaf 6bbe 99a6 40be
00000230: 8669 c73c 06dd 08be f53b 09bc a071 cabe
00000240: b0c7 f3bd eaad 43be 7b07 2a3e 9637 e5bd
00000250: 10d8 053f 1dbf 18be db14 b03d 17ab 9fbe
00000260: beaf c33c 422a 173e efd0 5c3e 4002 0bbf
00000270: 7804 dc3c d616 093f b7af 863e afe6 d0be
00000280: 048a 223c e2d3 32bd 8961 6e3e 6e59 09be
00000290: 1204 a63c 8b22 36be ad62 c23e f7ba 3ebe
000002a0: 4fc2 ce3b 5098 873d a53d 35be 9363 0cbe
000002b0: edfd 8dbe 132d 4fbe ce51 98be 78c1 da3d
000002c0: 2b44 15bd 3b06 833e a4cc 273d 8b09 8bbe
000002d0: 5974 833d 06d6 14bf b704 e93d 32bc bbbd
000002e0: a18d 193f 73fb 2b3d 01a1 ab3d d370 c4be
000002f0: 4f90 e33e 95fd c73e ea68 0dbe c8c0 e13e
00000300: e7f2 22be ae8f b1be 741e 123f a0c5 5fbe
00000310: e08a 8c3e 827b 303d 75eb b03e 420e 00be
00000320: 73e1 b83e 5625 b6bc accc 8dbd ce0c 03bc
00000330: b12f 323e 08c3 333e 205f 113e b185 863d
00000340: 13a3 99bc 0868 893d 75c3 c0be 98aa 113e
00000350: c18f 63be 25f8 13bf 55ae bebe 0a21 49be
00000360: ac2c c3be 4ac5 903e ec82 853e 4f3e 603d
00000370: 6f6e abbd 584a 033f 1f42 033f a107 8f3e
00000380: 1e33 d83e 6f03 f7bd d94b 9dbe 916b 62be
00000390: e0c6 593e a3d7 6fbe 9b0e 8bbd 5dde cb3d
000003a0: 9603 bc3e 1285 813d 0e3f dcbd 1443 553e
000003b0: c296 23be c555 54be 6030 abbd d69d dd3d
000003c0: 306c b53e 8626 c63c 5537 3bbd e793 03bf
000003d0: a17e 31bd 2282 b83d 1497 87bc 6e53 2dbe
000003e0: 8be6 61be b227 f6bd 0f0e 10be 5dd9 bcbd
000003f0: 70ee 363b a589 2f3f a0b6 efbd 1a7f 1cbb
0.16046242 0.60097337 -0.046397496 0.27498192 0.02866166 0.05977368 -0.24856387 0.16909254
-0.18556288 -0.1853911 0.40052766 0.26717216 -0.11530162 -0.0951469 0.041849554 0.49494842
0.0787282 0.35653028 0.034626924 -0.30225578 -0.11519952 0.08659077 0.09015502 0.4434646
-0.053018656 0.09433274 -0.23451614 -0.5733029 0.09711642 -0.37721696 0.3558391 0.18399748
-0.056107827 -0.09170722 -0.55077976 0.15518248 -0.14776205 0.036533974 -0.11306104 0.31198967
0.24795783 0.041081082 0.40508956 0.07971205 0.5248419 -0.20098211 -0.64710516 0.2055438
-0.27788666 -0.46668485 -0.109123886 0.01799519 0.26515827 0.1448353 0.027739216 -0.31565648
-0.7292728 0.074357346 0.056380168 -0.05912879 -0.0062941206 0.19118312 0.054075126 0.04671708
0.25492334 0.10466711 0.035095584 -0.20156863 -0.18519907 -0.009577151 0.44288272 0.34109992
0.053068534 -0.5536608 0.6975735 0.18477349 0.34036937 -0.008694435 0.28130218 -0.021630235
0.013909326 0.4307423 0.17594835 -0.27017292 0.01446562 -0.033784576 0.36348355 -0.23809956
0.050441645 -0.1890484 -0.49352914 -0.07468647 0.25070417 -0.17638215 0.24548383 -0.27609277
-0.0641255 -0.29002267 0.017441282 0.051618777 0.23191975 -0.40598765 0.32469106 0.24515928
-0.09577736 -0.81862444 -0.0025477356 0.015655262 0.69966114 -0.16215487 -0.2879449 -0.38277918
0.2172035 -0.2485338 0.019842206 -0.33817765 -0.052492265 -0.12852445 -0.20089576 -0.048506685
0.1235595 -0.027789358 -0.006873658 -0.14980116 0.06914297 0.14734016 -0.011301745 -0.04896274
-0.03309295 -0.41699493 0.4454741 0.26688728 0.30776188 0.61735666 -0.002280208 -0.4625244
0.15135553 -0.4392787 -0.23016092 -0.18813552 0.02434231 -0.13365564 -0.008376111 -0.39539814
-0.11903322 -0.19109312 0.16604416 -0.11192243 0.5228281 -0.14916654 0.08597728 -0.3118522
0.023887511 0.14762214 0.21564077 -0.5430031 0.0268576 0.5355047 0.26305935 -0.40800998
0.009920601 -0.0436591 0.23279394 -0.13413021 0.020265613 -0.17786615 0.3796591 -0.18626009
0.0063097845 0.06620848 -0.17699297 -0.1370986 -0.27732792 -0.20232038 -0.29749912 0.106814325
-0.036441963 0.2559069 0.040966645 -0.27155718 0.06418676 -0.58139074 0.113778524 -0.09166755
0.59981734 0.041987848 0.083803184 -0.38367328 0.44446036 0.39060655 -0.13809553 0.44092393
-0.15912972 -0.3467993 0.5707772 -0.21852732 0.27449703 0.043086536 0.3455464 -0.12505439
0.36109504 -0.0222346 -0.06923804 -0.007998658 0.17401005 0.17554867 0.14196444 0.06568468
-0.018754518 0.067092955 -0.37649122 0.14225233 -0.22222807 -0.57800514 -0.3724238 -0.1964151
-0.3812002 0.2827552 0.26076448 0.054746922 -0.08370673 0.51285315 0.5127277 0.27935508
0.422265 -0.12061202 -0.3072193 -0.22111346 0.21267271 -0.23422103 -0.06789895 0.09954522
0.36721486 0.06324209 -0.10754214 0.2082637 -0.15975478 -0.20735843 -0.08358836 0.108211204
0.35434103 0.024188291 -0.045707066 -0.51397556 -0.043333653 0.09009196 -0.016551532 -0.16926357
-0.22060601 -0.1201929 -0.14067863 -0.09221146 0.0027913116 0.68569404 -0.11704755 -0.002387947

lin1.bias f4 [128]
00000000: 135e b4bd 6bfe 5dbe 747c 8ebd 6cd2 e93e
00000010: d363 d63e fbd2 aebe ac61 2fbe b4aa 7bbc
00000020: 665f 643d 805c e7be f379 8cbd 1c25 8c3e
00000030: 61d1 723f 7993 643e c5be 943f 2dea 0bbe
00000040: 6f78 9ebd bed4 0f3e bd6e 23be 0dfe b0bd
00000050: 8073 adbc 1062 edbd 2c73 813d be6d 52be
00000060: a582 6ebd 484f c2bd 2e26 acbe 2f0c 943d
00000070: c368 9dbd 5f9e 63bd 9cc4 f1bb f8cb c9bd
00000080: 436a 883f 35cc f9bd f0fc d23b 4da0 0fbe
00000090: 75eb c93d cb1f 01bd 0758 a5bd cc38 d9bc
000000a0: 4343 82bd 8199 f2bd 8619 93bd df86 52be
000000b0: 21ff 1ebd 5768 03bc 1ee0 c7bd b7e5 f8bd
000000c0: 371a 9f3c 3ad5 5d3d 0a14 e03c 06d8 adbd
000000d0: 2be8 1e3e c2a3 11be ac7b 26be 6cc1 e4bd
000000e0: 7b1a 21bd 29be 11be 30ca b83c b61e 18be
000000f0: 9fe6 e7bd ddfd 41be d9aa 19be 682f 9fbd
00000100: dbb9 7fbe 37ff a63c fcca 3abe b9aa 61bd
00000110: 0b41 1ebe fdbc 4bbd 8496 b5bd a144 d5bd
00000120: e8be dabd 3560 b93d 2689 02be 8920 a3bd
00000130: f778 7bbd c0d9 5f3c 3371 d1bc b23a 99bc
00000140: cdb6 943d 7255 c03d 85c4 6bbe 3da0 4ebd
00000150: be6f 57bd 2540 bfbd 36b0 eabd 56ac bcbd
00000160: 9384 28be 09be 04be fb92 b6bd 3fa6 c2bd
00000170: 176d 9bbe 9c7e 58bd ddab 15bd 0c44 24be
00000180: 0e1d 52be f8b3 4fbd 262f d3bd 3caa d8be
00000190: f0a2 643c a819 e1bc 507f b83e 10c1 74be
000001a0: 91f6 643e 9cdd bbbd 1d89 27be fe61 9dbd
000001b0: 03e1 7d3e c2f0 b5bd 3566 57bd 8ae1 ce3d
000001c0: 3aad 12be 7528 be3c 0f16 94bd e4d6 9f3f
000001d0: 5b35 2bbe 3e55 1abd 6ad2 63be 0e82 babe
000001e0: e85a 61bd 009f 33be adfd f9bd e14f 033f
000001f0: a7ff dcbd a11b dd3d 462e 1cbe 2399 5dbe
-0.08807006 -0.21679084 -0.06957331 0.45668352 0.41873035 -0.3414534 -0.17127103 -0.015360523
0.05575504 -0.4518776 -0.068591975 0.27372062 0.94850737 0.22321881 1.1620718 -0.1366355
-0.07737815 0.14045998 -0.15960212 -0.08642206 -0.021173239 -0.115909696 0.063207954 -0.20549676
-0.05823006 -0.09487778 -0.3362288 0.07228886 -0.07685997 -0.055570956 -0.007378174 -0.09853357
1.0657429 -0.121971525 0.006438844 -0.14025994 0.09859363 -0.03152446 -0.080734305 -0.02651634
-0.063604854 -0.11845685 -0.071826026 -0.20559262 -0.03881753 -0.008020482 -0.09759544 -0.1215319
0.01942168 0.054158427 0.027353305 -0.08488469 0.15518253 -0.14222625 -0.16258115 -0.11169705
-0.039331894 -0.14232697 0.022557348 -0.14855465 -0.11323284 -0.18944497 -0.1500658 -0.07772714
-0.24973242 0.020385368 -0.18241495 -0.055094454 -0.154545 -0.04974078 -0.08866599 -0.104134806
-0.10680944 0.09051553 -0.1274763 -0.0796519 -0.061394658 0.0136627555 -0.025566673 -0.018704746
0.07261429 0.093912974 -0.23024185 -0.050445784 -0.0525968 -0.093384065 -0.11459391 -0.09212558
-0.16456823 -0.12963118 -0.08914753 -0.09504365 -0.30356666 -0.05285512 -0.036540855 -0.16041583
-0.20518896 -0.05070874 -0.10311727 -0.4231738 0.013954863 -0.027478054 0.36034632 -0.23901772
0.22359683 -0.09173128 -0.16360898 -0.07684706 0.24792866 -0.088838115 -0.052587707 0.10101612
-0.14323893 0.02321265 -0.0723077 1.2487454 -0.16719572 -0.03767895 -0.22248235 -0.3642735
-0.055018336 -0.17541122 -0.12206588 0.5129376 -0.10790949 0.107962854 -0.15252027 -0.21640448

lin1.weight_g f4 [128, 1]
00000000: 8b1f ea3f fe1c 873f 920d 9a3f c1ac 8d3f
00000010: 71be 9c3f 655c 4f40 5288 a03f 476e 753f
00000020: e269 d43f f08e 643f 289f c13f 4e3e a63f
00000030: 19ad 543f 30a7 b13f 48bf 6a3f 9f3c c53f
00000040: 556f 943f a01d c03f 0e8b 8c3f f309 b43f
00000050: f2b7 a73f 1ccb b43f d562 9c3f cf9b 903f
00000060: 8f9c a23f c2f1 d23f ebb9 983f 9248 a33f
00000070: b1d4 9f3f 275a 3a3f da5a c93f d2fd b43f
00000080: af09 623f 263b 9c3f d087 b63f fa75 aa3f
00000090: e187 763f 817a d93f fe9e 983f 362c 883f
000000a0: 5476 a93f 4348 be3f a970 863f a38b a63f
000000b0: 24bd 9a3f 71fe b53f e05b 8c3f e210 8b3f
000000c0: 2036 8a3f ef93 913f aac0 a63f 7b63 a93f
000000d0: f819 e23f 49ba b03f 9914 a53f 4e6e c53f
000000e0: 312e ac3f d505 a73f 36e9 5e3f b65e ac3f
000000f0: b442 7b3f 1e84 903f 0220 c33f b986 bb3f
00000100: fa03 9b3f 6460 9f3f d137 d13f bccf 9d3f
00000110: 7177 4d3f 3d80 a73f a4bc 9f3f 45a7 b93f
00000120: 77fa 873f fe5b c63f 3515 c63f 537a b13f
00000130: 764c c43f d081 b23f 65c2 b83f 5953 c93f
00000140: 953d b83f 7a81 9c3f e303 a63f b550 c63f
00000150: 5b37 c23f 9a54 b73f af46 a13f 974b b93f
00000160: 00f9 a63f a748 bc3f 3963 a63f eecf aa3f
00000170: 180b 523f da12 a73f 75c8 ca3f 4d61 b93f
00000180: 6b52 4f3f 2a12 8d3f f68e a23f a289 853f
00000190: cda6 b33f 01ae e23f 30a4 bb3f 2578 413f
000001a0: 0040 a03f e961 af3f 23ea 983f eed7 993f
000001b0: d39e ae3f 689f a63f 8719 983f e703 b23f
000001c0: 1889 a13f 1865 603f b732 a33f f253 683f
000001d0: 99b6 bd3f 31fa ca3f 853d 9f3f b80f 893f
000001e0: ce63 b03f 7fab a43f dbf5 ad3f cf59 d73f
000001f0: 85af b93f 92d2 963f 5ca3 aa3f 893f 653f
1.8290876 1.0555723 1.2035391 1.1068345 1.2245618 3.2400143 1.2541602 0.95871395
1.6594813 0.89280605 1.5126696 1.2987764 0.83076626 1.3879147 0.9169812 1.5409125
1.1596476 1.5009041 1.0979936 1.4065536 1.3103011 1.4124484 1.2217661 1.1297549
1.2704028 1.6480029 1.1931738 1.2756522 1.2486783 0.7279381 1.5730851 1.413996
0.88296026 1.2205551 1.4260197 1.3317254 0.96301085 1.699051 1.192352 1.0638492
1.3239236 1.4865803 1.0503131 1.3011364 1.2088971 1.4218274 1.0965538 1.0864527
1.0797768 1.1373271 1.3027546 1.3233484 1.7664175 1.380685 1.2896911 1.5424287
1.3451596 1.3048655 0.870746 1.3466403 0.98148656 1.1290319 1.5244143 1.4650489
1.2110589 1.2451291 1.6345159 1.232902 0.8026038 1.308601 1.2479444 1.4504172
1.0623311 1.5496824 1.5475222 1.3865455 1.5335834 1.3945866 1.4434325 1.5728561
1.4393793 1.2227013 1.2969936 1.549338 1.5173143 1.4322693 1.2599696 1.4476193
1.3044739 1.4709672 1.299903 1.3344705 0.8204818 1.3052628 1.5842425 1.4482819
0.80985135 1.1021168 1.2699878 1.0432627 1.4035279 1.7709352 1.4659481 0.7557395
1.2519531 1.3701755 1.1946453 1.2019022 1.3642219 1.3017397 1.188279 1.3907441
1.2619963 0.87654257 1.2749852 0.9075309 1.4821349 1.5857602 1.2440649 1.0707922
1.3780458 1.2864836 1.3590654 1.6824282 1.4506689 1.1783011 1.3331103 0.8955007

lin1.weight_v f4 [128, 128]
00000000: 381f f73c 2294 fa3d c2d0 823e a925 bcbd
00000010: a67a a7bd e0a4 67be b369 c63d 3f8f 0e3e
00000020: 18ab 12be bf32 aa3a b2f8 843c 30c2 3dbe
00000030: ddfb a8bd 4c61 8fbe 1b0f 973d a21f a0be
00000040: 1a31 1abe 7dbe b03b c43a db3d a2c6 fdbd
00000050: 59a7 afbd 9c4c bdbc acb3 7c3c 8ceb dfbe
00000060: 5c1e 19bd a3c1 45be 9f69 76bd 1573 fe3d
00000070: 3ac5 5cbd 64b0 4a3e 9a15 723e 0314 653d
00000080: 55a3 9ebe 30f6 b53d 4113 bb3c 0fc6 a9bd
00000090: fbc9 1f3e e155 49be 3fe2 45bc a191 523e
000000a0: d028 903d 8377 613d 0ab1 94be d0c8 1abe
000000b0: 16f7 303e a236 613e 6bf1 05be 1953 4bbd
000000c0: f990 90bc d46c 8e3d 6356 b2bd 7d2a d03e
000000d0: 8423 6fbe ca28 27be 4128 93bd 2c29 1e3c
000000e0: e6d7 01be 03d2 913e d5a1 4cbe bff7 de3d
000000f0: 4bc9 39be 736e 88be e6d1 563b 386e 06bf
00000100: 81b8 163d 042f 24be 5634 483e af38 a5be
00000110: e802 593e d550 7ebe af9b d63d a737 de3d
00000120: 8ab9 9ebe 6308 743d 267d 9cbe a970 08bf
00000130: 3460 e3be 7250 6f3e 36fc 8b3d 9160 1a3e
00000140: b581 22be da1b 3cbe 0220 f13d 1df3 293e
00000150: c1c8 76bd c2b7 5ebd e9c2 fe3c 7499 4bbd
00000160: f113 0f3e fd43 9cbd b6a5 f83d f470 0bbe
00000170: 4225 39bd a508 353d ce79 e73d 3aad f5be
00000180: dfd1 9cbe a395 35be 4c4b 7bbe 5a30 74be
00000190: f88c 8cbd 0c1f 21bc 1cd1 4cbe f10e 42bd
000001a0: c048 bfbd 38af 3d3d 5002 5d3d dd76 243d
000001b0: a838 733c edab 0abe 9253 0e3e ab8f 91be
000001c0: 45c1 bebe 0c6b 343b 5d1b afbc d9b0 283d
000001d0: 9366 7abd 7688 5abc 521c 6fbe 1803 03be
000001e0: 9258 56bd 878a 463e a044 9b3d b143 0dbf
000001f0: 037a f53d 8ec2 493e 1692 5ebe 29c5 da3c
00000200: 0a98 67be 30a8 9fbe 7a84 4ebe 0b60 643e
00000210: 8108 893e 9b50 9c3c 5bd9 d8bd 9d10 79be
00000220: f650 903e 515a 28ba b5ab 823e 456b 553c
00000230: 972d c4be 750e 1ebe 70cb b83e 6c22 03bf
00000240: 582c 9dbd 4720 29bf bebe 573e 3ac5 2a3e
00000250: 8ca7 683a 17aa 9cbe feb7 05bd eb06 b23e
00000260: f192 e4bd e891 743e 7e6b 80bd 85d9 e63d
00000270: c6c9 a0bd f1b0 bb3d 2ccb b0bd 355f bfbc
00000280: 5fd4 c23d 671d 9e3e 5aa5 1fbe 5674 72be
00000290: 1af4 9bbe 808b 283e 252a 88bd c54a 9cbd
000002a0: 2f77 9b3d c5f8 93be 9b6d f4bd 122f b33e
000002b0: 2299 bcbd 3d50 adbe 97f7 68be 8465 72be
000002c0: 38ae 22bd d024 233d 8eaa 6b3e f2de 993e
000002d0: 095b 98bd 7f37 013e d34e 153e 99bc c23d
000002e0: 081b cbbe 4687 a93d d4a9 e6be 0a6e 523e
000002f0: bc1a 2abe 80d4 c13c a0f8 b9bd 4577 fabd
00000300: b6a5 69be 654a 69be 6d02 c0be ba83 1f3e
00000310: 20d0 1e3e 86ef a6be 0fa7 41be 8377 c1be
00000320: e1a3 fcbc 1406 a0be c1d3 2f3d 7745 d1bd
00000330: e217 5ebe 97c0 9f3e 4086 05bf dc5b ab3d
00000340: 07d2 443e 4664 afbc e49b c0be 49c6 e33d
00000350: 809e 1d3d 859e c93d eb56 25be ca57 66be
00000360: 5623 e43c 3c04 763d 6033 b8be ab5c 373d
00000370: c13c 5ebe 407e 6cbe 6a03 22bf d5c5 023e
00000380: b6df 5f3e f1c3 e13d 4ae9 6c3d 00b3 743d
00000390: fa9c 38bf 02b5 f7bc 77d0 83bd 27cb a3be
000003a0: a41f 183e ec57 233e 6f2f 3d3c b3c5 06bf
000003b0: 3c52 00bf 4106 b23c e6b0 aabe ecf3 68bd
000003c0: 09f9 56bd f51e bf3d d63e 4a3e de7c 0b3f
000003d0: 9603 9cbe 430b c73e 32dc f6bd 7633 003e
000003e0: 1501 453e fec2 cfbe 5db3 633e 6b49 1f3f
000003f0: bc0c 383e a92f 99be 7c32 95bc d051 523d
0.030166253 0.12235285 0.25549895 -0.091868706 -0.0817769 -0.22621489 0.09688129 0.13921832
-0.1432308 0.0012985094 0.016231868 -0.18531108 -0.08251164 -0.2800392 0.07375928 -0.31274134
-0.15057793 0.0053938017 0.10704568 -0.12391402 -0.08576841 -0.02310782 0.0154236965 -0.43734396
-0.03738247 -0.19312148 -0.060159322 0.12424294 -0.053899027 0.1979385 0.23641053 0.055927288
-0.30983987 0.08884847 0.02283633 -0.0828973 0.15604393 -0.19661666 -0.012077867 0.20563366
0.07039034 0.055045616 -0.2904132 -0.15115666 0.17281756 0.21993497 -0.13080375 -0.049639795
-0.017647253 0.06954351 -0.08707883 0.40657416 -0.23353392 -0.16324154 -0.07185412 0.009653371
-0.12680015 0.2848054 -0.19983609 0.108870976 -0.18143193 -0.26646766 0.0032778918 -0.5251193
0.03679705 -0.1603356 0.19551215 -0.3226981 0.21192515 -0.24835522 0.10478913 0.108504586
-0.3100093 0.05957831 -0.3056423 -0.53296906 -0.44409335 0.23370531 0.06835215 0.150759
-0.15869792 -0.1837 0.11773683 0.16596647 -0.060250048 -0.054374464 0.0310988 -0.04970689
0.13972451 -0.07630155 0.12140982 -0.13617307 -0.045201547 0.044197697 0.11302529 -0.47983724
-0.3062887 -0.17732863 -0.24540442 -0.2384657 -0.06862825 -0.009834062 -0.20001644 -0.04737753
-0.09340048 0.04630968 0.053957283 0.04015242 0.014845051 -0.13542147 0.13899067 -0.28429922
-0.37256828 0.0027529625 -0.021375353 0.04118428 -0.06113298 -0.013338199 -0.23350647 -0.12794149
-0.05233056 0.19388781 0.075814486 -0.55181414 0.119861625 0.19703123 -0.21735415 0.026705341
-0.22616592 -0.31183004 -0.20167723 0.22302262 0.267643 0.019081404 -0.10588332 -0.24322744
0.28186768 -0.00064221496 0.25521627 0.013026063 -0.38316032 -0.15435202 0.3609271 -0.512244
-0.076744735 -0.66064876 0.21068856 0.16676798 0.0008875064 -0.30598518 -0.03264617 0.34770903
-0.11160839 0.23883784 -0.062705025 0.11271957 -0.07850985 0.09164608 -0.08632502 -0.023360828
0.09513163 0.30881807 -0.1559042 -0.23677191 -0.30459672 0.16459465 -0.066486634 -0.07631449
0.07591092 -0.28900734 -0.11934968 0.3499685 -0.09208895 -0.3385028 -0.22750698 -0.23671538
-0.03971693 0.03983003 0.2301428 0.30052906 -0.074392386 0.12618826 0.1458085 0.095086284
-0.3966906 0.082777545 -0.45051444 0.20549789 -0.16611761 0.023660898 -0.090806246 -0.1222978
-0.2281712 -0.22782286 -0.3750185 0.15577593 0.15509081 -0.32604617 -0.18911384 -0.37786493
-0.030839862 -0.31254637 0.042926554 -0.102183275 -0.21688798 0.31201622 -0.52157974 0.0836713
0.19220744 -0.021410119 -0.37618935 0.11121804 0.038481236 0.09844688 -0.16146438 -0.22494426
0.02784888 0.060062632 -0.35976696 0.04476611 -0.21702863 -0.23095036 -0.6328646 0.1277078
0.21862683 0.11023701 0.05783967 0.05974102 -0.7211453 -0.030237678 -0.06436246 -0.3199093
0.1485582 0.15951508 0.011546954 -0.52645415 -0.5012548 0.021731498 -0.33338088 -0.056873247
-0.052483592 0.093320765 0.19750533 0.5448741 -0.30471486 0.3887578 -0.12053718 0.12519631
0.19238694 -0.40578455 0.2223639 0.622214 0.17973608 -0.29919174 -0.01821255 0.051347554

lin2.bias f4 [128]
00000000: bd4d 7dbe 3c20 84bd ae34 023f af87 3a3e
00000010: be25 04be b076 b4bd 3b67 87bd d9e0 c4bd
00000020: 0d62 a8bc 526a 18be 4595 b6bd bdd9 21be
00000030: 0234 afbd 45bb 26be 5acd 33be 1400 05be
00000040: e242 babd 0801 9cbd 173d 47be dab6 a13c
00000050: a869 16be 44ca d03e c7b9 bcbd f2cb 89be
00000060: f9d0 0cbe 04d6 d0bd c64b febd 3369 dbbd
00000070: d441 10bc 46bf 14be 93d2 50be 8185 2abe
00000080: 2fdd b33b 6f9b 82be be4f e3bd f417 d7bd
00000090: e6e3 13be 52d2 ef3e 4d5f 96bd 0b1d 83be
000000a0: 4195 90bd 50ca c83d d0bc 8bbd 661d 4dbe
000000b0: 084c 04be b86b dabd b29d 95be 6fdc ddbd
000000c0: 94bc c0bd 6aa4 92bc 9579 37be dd5d 2fbd
000000d0: edd5 52bd fa6e 6f3d b9c0 e9bd aafd c2bd
000000e0: 9aad 88bd c43e 33be c26e 2abe d902 e3bd
000000f0: db12 61be 69b2 8cbd d936 e6bd 504d 69be
00000100: dfb9 a1bd d92a 81be 4f57 b6be c1e3 f8bd
00000110: 61ed bcbc 2ff8 31bd ddb3 1abe 1d87 e3bd
00000120: 283f 10be fbe3 bbbc bfa4 ae3e 8960 2dbe
00000130: 2dbc 1fbe 3b95 a6bd f8f9 793e 3c6a 34be
00000140: eb7a 06bd 2826 2abe 823c d8bd cdc1 9e3e
00000150: bf73 48be cb0c bbbd 1341 cdbd 2815 c4bd
00000160: 956e cbbd 0a3d 98bd 24a1 cebe 478e 29be
00000170: e66d 66be 74b9 b1bd e8d1 763e 7246 d7bd
00000180: a99e 2bbe 7c1c 5abe e06f 97bd a263 dcbd
00000190: 4e6d f8bd ece7 64be 2fb9 163e 5f34 64be
000001a0: 4743 773e ff44 30be d101 07be 8395 6bbe
000001b0: 8c7b c5bd e4e1 4cbe e7c9 7a3f badb e7bb
000001c0: c810 3cbe 050e 5cbe ddec 3fbe 9fee 0bbe
000001d0: b3b3 21be 3a75 55be 2b98 e5bd e4e6 b4bd
000001e0: 6cd3 1ebe 91ee b9bd dd2d c1bc 3f33 5fbe
000001f0: e441 0a3f e5ad c5bd c831 73be 8859 e1bd
-0.24736686 -0.06451461 0.5086163 0.18215822 -0.12905023 -0.088117 -0.066114865 -0.09613199
-0.020554567 -0.14884308 -0.0891519 -0.15805717 -0.085548416 -0.16282375 -0.17558804 -0.12988311
-0.09094788 -0.07617384 -0.19456898 0.01974051 -0.14688742 0.40779316 -0.09215122 -0.2691341
-0.13751592 -0.1019707 -0.124167964 -0.107134245 -0.008804757 -0.1452609 -0.20392828 -0.1665249
0.0054890136 -0.2550921 -0.11099194 -0.105026156 -0.14442405 0.4684015 -0.07342396 -0.25608096
-0.07059718 0.09804213 -0.068231225 -0.20030746 -0.12919629 -0.10665077 -0.29221874 -0.1083306
-0.094109684 -0.017900664 -0.17917474 -0.042814124 -0.051473547 0.058455445 -0.11413712 -0.09521039
-0.06673737 -0.17504412 -0.16643813 -0.110845275 -0.21979849 -0.068699665 -0.1124093 -0.22783399
-0.0789678 -0.25228003 -0.35613486 -0.121528156 -0.02306241 -0.043449577 -0.15107675 -0.11109755
-0.14086592 -0.022935858 0.34110066 -0.16931356 -0.15599127 -0.08133932 0.24411762 -0.1761865
-0.032832067 -0.16616118 -0.10558416 0.31007233 -0.19575404 -0.091332994 -0.100221775 -0.09574348
-0.09933201 -0.07433517 -0.40357316 -0.16558181 -0.2250286 -0.086779505 0.2410351 -0.10511483
-0.16759743 -0.21299928 -0.07394385 -0.10761191 -0.12130223 -0.22354096 0.1471908 -0.22285603
0.24146758 -0.1721382 -0.13184287 -0.23006253 -0.09642705 -0.20008045 0.9796433 -0.007075754
-0.18365777 -0.21489723 -0.187427 -0.13665245 -0.15791206 -0.208455 -0.11210664 -0.088331014
-0.15510339 -0.09078706 -0.02358144 -0.21796893 0.5400679 -0.096523084 -0.23749459 -0.11003405

lin2.weight_g f4 [128, 1]
00000000: 75e7 613f 883c 923f ca3f 5c3f 9370 683f
00000010: 5720 8f3f 838d ae3f 7e19 863f 65e9 9d3f
00000020: 959f 943f 46fe ac3f 1c74 b13f e911 a43f
00000030: f69a 413f a487 873f 8092 8f3f 83b9 843f
00000040: 9b50 663f 1877 7f3f 8fcc 9a3f b681 c13e
00000050: abd9 9e3f b617 c53e 663e 883f 8281 823f
00000060: 4e99 8e3f f395 753f d4bd af3f 9ae1 853f
00000070: 9089 9b3f d891 933f a4d6 9a3f 9d89 9f3f
00000080: c99a 9f3f 4ff0 753f 60ce 973f a452 ab3f
00000090: fd51 6d3f e3a1 4e3f 8113 8d3f e023 963f
000000a0: 453f 5c3f f1a9 623f 10ff a23f 1314 843f
000000b0: 1a19 a83f b96e b03f e0c0 883f f6dc a63f
000000c0: af47 9f3f bafe 6b3f 65bc bc3f 6530 103f
000000d0: 9bf8 9e3f 0a76 f33e 2999 863f 00e2 6e3f
000000e0: 6e8c 583f d91b 893f 0757 9a3f cfaa 8b3f
000000f0: 478f 913f 963c 953f ab77 843f a084 9d3f
00000100: 7b73 a23f 3ab7 993f d4ac 7e3f 5da1 8f3f
00000110: bea4 8a3f 279b 8e3f 2c65 9d3f 0968 5f3f
00000120: 9f75 983f 5217 b03f e934 0e3f 8fe5 9d3f
00000130: dc98 7c3f c356 983f 7e7e 933f 9ac7 883f
00000140: 4850 583f 9217 b23f ef6f 6c3f ef36 4b3f
00000150: 2096 973f 4d56 733f 2bd0 9b3f 1447 903f
00000160: e9b8 a43f 8581 a73f 08ea 653f e058 a13f
00000170: 7999 843f f12a 913f ca8b 393f 2005 813f
00000180: 27b7 933f 0385 503f f984 833f 2c23 973f
00000190: 94f1 893f bc00 973f f2ab 2c3f fbf8 a83f
000001a0: e69c 713f 17e9 9f3f 265f 923f f8d6 843f
000001b0: aca5 a63f c6cc 7d3f 5547 733f ae00 643f
000001c0: b44b 953f 3de4 6a3f 5146 a23f fdff 703f
000001d0: 4aa0 913f 0128 2d3f 3155 a93f 3ed6 793f
000001e0: 296a a43f 2b72 aa3f 74c0 813f 7cab 873f
000001f0: f072 7b3f 3c3c 9d3f 8512 743f f47a 9f3f
0.882438 1.1424723 0.86034834 0.90796775 1.1181744 1.3636936 1.047653 1.2336851
1.16112 1.3515098 1.3863559 1.2817966 0.75627077 1.0588269 1.1216583 1.0369114
0.89966744 0.997911 1.2093676 0.37794274 1.2410177 0.38494653 1.0644042 1.0195773
1.1140535 0.9593193 1.3729806 1.0459473 1.2151356 1.1528883 1.2096753 1.2463871
1.2469112 0.96069807 1.1859856 1.3384595 0.9270323 0.8071577 1.1021577 1.1729698
0.8603404 0.8854056 1.2734089 1.0318626 1.313266 1.378379 1.0683861 1.3036182
1.2443751 0.92185557 1.4744993 0.56323844 1.2419618 0.47550994 1.0515491 0.933136
0.8458928 1.0711623 1.2057809 1.0911502 1.137185 1.1659114 1.034902 1.2306099
1.2691492 1.2009041 0.99482465 1.1221119 1.0831525 1.1141099 1.22965 0.8726812
1.1910895 1.3757117 0.55549484 1.2335681 0.98670745 1.1901478 1.1522977 1.0685914
0.844975 1.3913443 0.923583 0.79380697 1.184269 0.9505356 1.2172903 1.1271691
1.286893 1.3086401 0.8981023 1.2605247 1.0359336 1.134123 0.72478926 1.0079689
1.1540269 0.8145296 1.0274955 1.1807609 1.0776849 1.1797099 0.6744987 1.3200983
0.94380033 1.2493008 1.1435287 1.0378103 1.3019309 0.99140584 0.9503072 0.8906354
1.1663728 0.91754514 1.2677709 0.9414061 1.1377041 0.67639166 1.3229123 0.9759253
1.2844898 1.3316091 1.0136857 1.0599208 0.98222256 1.2284007 0.9534076 1.2459397

lin2.weight_v f4 [128, 128]
00000000: 05f1 25bf 7aad 0c3f 6408 12bf d497 c33c
00000010: c437 96bd 5d53 083f d666 23bf d42f 073f
00000020: 09a3 0dbf 905e c73d ec0d e9be 2b59 61bc
00000030: 5a50 bbbe 9e4a d2be 8eab a9be 1908 12bf
00000040: bf3d 113f 197b 26bf aa80 d93e 30d5 24bf
00000050: ea5e 0bbf 907c f3be 1a27 85ba f327 c6bd
00000060: 4192 60be 8921 04bf 509a 0bbf f0c5 213f
00000070: 6875 3dbf 5dfa 91be 52b3 3e3f 82f8 a23e
00000080: c03a f7be abdf fcbe 7dc3 01bf 1877 193f
00000090: 998c 0abf f2f7 0c3f e3ee 23bf 2d01 24bf
000000a0: 2577 23bf cb7d e83e bcd9 4b3f 222d a83e
000000b0: bf89 093f 2acd 0dbf 3343 f93e d7cc f7be
000000c0: ecd8 9c3d 6c07 073f 9f01 d23d 48b0 2cbf
000000d0: b5a0 d3be 3649 03bf eedd b9bc 4c02 3e3f
000000e0: 1c1c 0cbf c449 0b3f d70a 93bd 76c4 2bbf
000000f0: c60c 51be 0b86 27bf 7fa7 db3e f171 763e
00000100: 98d1 62bf c23b 323e c2f4 edbe 82e0 25bf
00000110: 37b1 103f 6ae6 113f 3f72 1dbf 840f 163f
00000120: b5a1 3c3f 963b 063f c8aa f63e d76a f4be
00000130: e4b0 03bf 5595 153f 4938 063f 475f 1c3f
00000140: da44 0ebf 2c14 a03c a9cc 1bbf deaf 1abf
00000150: 2303 32bf c75f 0fbf 48c0 20bf 90b2 273f
00000160: c2a8 aebe 15f4 03bf 240f 8f3e 54ad 23bf
00000170: c2ce 58bd 47ef 2b3f 3248 0fbf a05a 143f
00000180: 28f4 873b 34d3 35bf 7455 e7be 20e6 14bf
00000190: 5b6e d93e 3cc7 173f 4fdd 20bf 4ca1 02bf
000001a0: 423a b43d da13 8cbe 199a 05bf 3f22 0bbf
000001b0: 9913 c73e fb7e 4abf 2181 27bf 59c1 9d3e
000001c0: 4900 1abf 084c fa3e bf14 f9be 22bd 98bd
000001d0: 10d2 09bf e117 fe3e 5652 293f 5564 db3c
000001e0: 76cc 25bf 80fa 20bf 4aa0 17bf 536c 2dbe
000001f0: dcf5 30bf 7ea1 53bf 4dae c23e 4034 28be
00000200: 3dd2 563e 9a4f cabd ca89 2a3e 876f 15be
00000210: 29f2 35be f686 f5bd 8160 e7bd 7d2a 013e
00000220: d879 c53d 73fb c3bd 9d5f 883d 1e71 be3d
00000230: d9bd 36be 05d2 d0bd 9d3c b4be 1c37 eabd
00000240: 2cae 803d 67fc debc d125 883d c78a a93e
00000250: 0f14 44be af68 bb3e bf2e 44be 8b1c 323e
00000260: efec 26bd c46f 59bd b9ab 38be 0052 7b3d
00000270: a8b2 82be 6646 71be 9d3b 93bd a160 64bd
00000280: 17aa 75be 9b6d 67bd 4ea9 fb3c e18c 81be
00000290: 3cf4 89bd f394 323d 2897 80bd c007 453f
000002a0: b46d 903d f070 b4bd 8adc bdbd df7a 613e
000002b0: fdde 33be 5fc3 7dbd bfd1 27be 6e7c 4bbe
000002c0: d0e7 3dbe 7df4 55be bf5b 72be ff90 61be
000002d0: 99a7 77be 3b74 6bbd bdc5 56be b001 0f3e
000002e0: 912b 2f3d 29d9 09bd f36b 7ebd 095b d5be
000002f0: 7680 d1bd 6f72 803d f42c ef3d 2e1e b0bd
00000300: 8de6 2d3d 3de0 66be b545 2ebd ae8a e4bd
00000310: 9dec 78bd 3db2 eabd 3239 27be d98e 983e
00000320: e04f 0e3e 282d 73be 052a bbbd a0d0 523e
00000330: 55d0 edbd a5f0 63be 2deb 1e3e c597 80bd
00000340: 2390 ddbd 553d 3cbc a6ce 0c3e 4eb3 913e
00000350: fb7a 403e 233b 283e fdb3 80bd 5d9c 8fbe
00000360: 4310 16be c6a5 b83d 765b b63c 96c4 b53e
00000370: 4f9d b53c e216 21be 6224 6ebd 2d09 9bbd
00000380: 7b7a 81be 8c44 fc3d 81cc e93d a25e 93be
00000390: 03e8 143e 06a2 74bd b029 3e3e 80b8 76be
000003a0: f511 1bbe 31ec 333e 779e 80be 2011 8fbe
000003b0: aa13 30be c8ec 86be 1953 b8be 0e74 423d
000003c0: 475f e9bd 89c8 4e3e 1f8b 1fbe f93e aabe
000003d0: 2f83 953c 8522 8cbe c05e 893c d708 ecbd
000003e0: 2f7b 77be bc52 933e c060 293e 99b7 803d
000003f0: 6e0d 92bd 763d 94bd a449 613d b10b 843d
-0.6482089 0.54952204 -0.57044053 0.023876108 -0.07334855 0.532522 -0.6382879 0.52807355
-0.55326897 0.09734833 -0.45518434 -0.013754169 -0.3658474 -0.41072553 -0.33138698 -0.57043606
0.5673484 -0.6503158 0.42480975 -0.643878 -0.544417 -0.4755597 -0.0010158748 -0.096755885
-0.21930791 -0.5161367 -0.5453234 0.63192654 -0.7400727 -0.28511325 0.7449237 0.3183022
-0.4828701 -0.49389395 -0.50688916 0.5994735 -0.54120785 0.55065835 -0.6403639 -0.64064294
-0.63853675 0.45408472 0.7962911 0.32846934 0.5372581 -0.5539118 0.4868408 -0.48398468
0.07658562 0.527457 0.102542154 -0.67456484 -0.41333547 -0.51283586 -0.022688832 0.74222255
-0.5473039 0.5440943 -0.07179802 -0.6709665 -0.20415029 -0.6543891 0.42901227 0.24066903
-0.88601065 0.17405608 -0.46475798 -0.64795697 0.5652041 0.5699221 -0.6150245 0.58617425
0.73684245 0.5243467 0.4817717 -0.47737762 -0.5144179 0.5843099 0.52429634 0.6108288
-0.5557381 0.019540869 -0.6085916 -0.604246 -0.69536036 -0.5600552 -0.627934 0.6550684
-0.34113127 -0.51544315 0.2794124 -0.6393635 -0.052931555 0.67161983 -0.55969536 0.5795078
0.0041489787 -0.71025395 -0.45182383 -0.5816364 0.42467007 0.5928838 -0.6283769 -0.5102737
0.08800174 -0.27358896 -0.5218826 -0.5434913 0.3888214 -0.79100007 -0.6543141 0.30811575
-0.60156685 0.48886132 -0.4864864 -0.07457949 -0.53836155 0.49627593 0.6614126 0.02678124
-0.6476511 -0.6288223 -0.59228957 -0.16935854 -0.6912515 -0.8266829 0.38023606 -0.16426182
0.20978637 -0.09878464 0.16654125 -0.14593326 -0.17768158 -0.119886324 -0.112977035 0.12613864
0.096423805 -0.095694445 0.06658862 0.09298919 -0.17845859 -0.10196308 -0.35202494 -0.114362925
0.06283221 -0.027219964 0.06647838 0.3311369 -0.19148277 0.36603305 -0.19158457 0.17393701
-0.0407533 -0.053085104 -0.18034257 0.0613575 -0.2552693 -0.23562011 -0.07189105 -0.055756215
-0.23990665 -0.056501012 0.03072038 -0.25302795 -0.06736037 0.04359908 -0.06278831 0.7696495
0.07052174 -0.088106036 -0.0927058 0.22019528 -0.17565532 -0.0619539 -0.16388606 -0.19871685
-0.1854546 -0.20894046 -0.23667811 -0.22027968 -0.24185027 -0.057483893 -0.20973869 0.13965487
0.042766158 -0.033654366 -0.062114667 -0.41671017 -0.1022958 0.062718265 0.11678496 -0.08599506
0.0424562 -0.22546478 -0.042546947 -0.111592636 -0.060772527 -0.114597775 -0.16330412 0.29796484
0.13897657 -0.23747694 -0.09138874 0.20587397 -0.11612002 -0.22259767 0.155194 -0.06278948
-0.108185075 -0.011489232 0.13750705 0.2845711 0.18796913 0.16428809 -0.0628433 -0.28048983
-0.14654641 0.09015994 0.022260409 0.35501546 0.022169737 -0.15731385 -0.058140166 -0.075701095
-0.25288758 0.12317762 0.11415959 -0.28783137 0.1454163 -0.05972483 0.1857059 -0.24093819
-0.15143569 0.17570569 -0.251209 -0.27942753 -0.17195001 -0.26352525 -0.36000898 0.04747396
-0.11395126 0.20193686 -0.15580414 -0.3325117 0.01825103 -0.27370086 0.016768813 -0.115251236
-0.24168085 0.2877406 0.16540813 0.062850185 -0.07131468 -0.07238285 0.05500187 0.064475425

lin3.weight_v f4 [1, 128]
00000000: ca78 91bd a684 483c 98e7 9fbe 90b1 91be
00000010: 8c20 873f a16b 33b9 8b0f 4a3f 0317 283f
00000020: f202 543f c323 733f f6e5 883f 51b3 103f
00000030: 9937 663f eb9a 723f 1f35 a73e 09bb 7e3f
00000040: 50f1 7e3f deec 893f 0b3d 6f3f e607 3a3f
00000050: c527 363f 2993 8c3e 4297 843f 5d72 713f
00000060: b963 9e3d a483 273f 9adc 893f 9f8a 883f
00000070: c557 12b9 9f37 653f 4165 4f3f 6def 7a3f
00000080: c4e5 1b3f 37ee 803f 5cfe 863f 1914 ad3e
00000090: a3de 2c3f 4382 80be 0fa4 3d3f ebcc 5f3f
000000a0: a43f 873f a910 5a3e 62be 883f 863b 723f
000000b0: 2170 833f dcde 313f c712 803f e814 8933
000000c0: a75f 883f e6a0 d4bd 2df2 4a3f 8e86 d83e
000000d0: 431d 213f 5be3 a83d 6017 5d3d c3e0 293f
000000e0: 5dfc 873f 155e 8a3f d98d 023f af7a fa3e
000000f0: ce72 7a3f b572 5b3f b111 a5ba 6de1 6d3f
00000100: cda6 8b3f 38b8 473f 3597 873f a208 853f
00000110: 2128 d23d a4d4 553d 630f 793f 6231 203f
00000120: 6849 423f d325 893f 19d8 323e 022a 813f
00000130: 19e0 863f a45c 813f c912 5c3e 46e0 893f
00000140: d143 283f fe09 883f 9e29 213f f1f4 873e
00000150: 7d89 823f b230 163e 2890 893f 6194 793f
00000160: f75f 703f a791 d33c 4bf9 0b3a 08eb 6a3f
00000170: 9370 2d3f 1731 6d3f 0a66 de3d 62c8 3a3f
00000180: 6321 8e3f ffcf 373f c01c 8b39 9e42 873f
00000190: 08ea d23e f563 af3e 8949 7fbe c771 883f
000001a0: a421 9c3e d8d4 8d3f 6620 883f e972 833f
000001b0: 71ae 893f 1f5b 843f 79ce c23e 7636 6cbb
000001c0: dbeb 873f c3d3 693f 7658 863f 39ee 3a3f
000001d0: b4e5 873f 92ba f13e cf5d 883f 51a7 e53b
000001e0: 0fb0 f23c c72b 003f f3c0 463f c2bf e33d
000001f0: 9ef8 5fbe bc1b 8b3f 7b43 5f3f 383a 2e3f
-0.07103117 0.012238657 -0.3123138 -0.28455782 1.0556808 -0.00017110865 0.78929967 0.65660113
0.82816994 0.94976443 1.0695179 0.56523615 0.89928585 0.94767636 0.32657716 0.99504143
0.99586964 1.0775411 0.9345252 0.726683 0.71154433 0.27456024 1.035866 0.9431513
0.07733864 0.6543524 1.0770447 1.0667304 -0.00013956342 0.89537996 0.81013876 0.98021585
0.6089747 1.0072697 1.0546374 0.33804396 0.67527217 -0.25099382 0.7407846 0.87422055
1.0566297 0.21295418 1.06831 0.94622076 1.0268594 0.6948068 1.000573 6.3833625e-08
1.0654191 -0.103822514 0.7927578 0.42290157 0.62935275 0.082464896 0.05397737 0.66358584
1.062389 1.0809962 0.5099769 0.48921725 0.9783143 0.85721904 -0.0012593773 0.929221
1.0910279 0.7801547 1.059302 1.039326 0.1026156 0.052204743 0.97289103 0.6257535
0.7589326 1.0714668 0.17465247 1.0090945 1.0537139 1.0106397 0.21491541 1.0771568
0.6572848 1.0628049 0.6295413 0.26554063 1.0198208 0.14667013 1.0747118 0.97492033
0.9389643 0.025826288 0.0005339577 0.9176488 0.677499 0.9265303 0.10859306 0.7296201
1.1103939 0.7180175 0.00026533566 1.0567205 0.41194177 0.3425595 -0.24930395 1.0659722
0.30494416 1.108058 1.0634887 1.0269443 1.075636 1.0340308 0.3804815 -0.0036043203
1.0618852 0.9133875 1.0495746 0.7301975 1.0616975 0.47212654 1.0653628 0.007008471
0.029624967 0.500668 0.7763817 0.11120559 -0.21872184 1.0867839 0.8721234 0.68057585
